…
2017-11-12 22:41:19.145123: W tensorflow/core/platform/cpu_feature_guard.cc:45] The TensorFlow library wasn't compiled to use SSE4.2 instructions, but these are available on your machine and could speed up CPU computations.
2017-11-12 22:41:19.145133: W tensorflow/core/platform/cpu_feature_guard.cc:45] The TensorFlow library wasn't compiled to use AVX instructions, but these are available on your machine and could speed up CPU computations.
self.__encoder_layers_config  [96, 28, 26, 24, 22, 20, 19, 17, 15, 13, 9]
_________________________________________________________________
Layer (type)                 Output Shape              Param #   
=================================================================
input_1 (InputLayer)         (None, 96)                0         
_________________________________________________________________
enc0_28 (Dense)              (None, 28)                2716      
_________________________________________________________________
enc1_26 (Dense)              (None, 26)                754       
_________________________________________________________________
enc2_24 (Dense)              (None, 24)                648       
_________________________________________________________________
enc3_22 (Dense)              (None, 22)                550       
_________________________________________________________________
enc4_20 (Dense)              (None, 20)                460       
_________________________________________________________________
enc5_19 (Dense)              (None, 19)                399       
_________________________________________________________________
enc6_17 (Dense)              (None, 17)                340       
_________________________________________________________________
enc7_15 (Dense)              (None, 15)                270       
_________________________________________________________________
enc8_13 (Dense)              (None, 13)                208       
_________________________________________________________________
enc9_9 (Dense)               (None, 9)                 126       
_________________________________________________________________
dec0_13 (Dense)              (None, 13)                130       
_________________________________________________________________
dec1_15 (Dense)              (None, 15)                210       
_________________________________________________________________
dec2_17 (Dense)              (None, 17)                272       
_________________________________________________________________
dec3_19 (Dense)              (None, 19)                342       
_________________________________________________________________
dec4_20 (Dense)              (None, 20)                400       
_________________________________________________________________
dec5_22 (Dense)              (None, 22)                462       
_________________________________________________________________
dec6_24 (Dense)              (None, 24)                552       
_________________________________________________________________
dec7_26 (Dense)              (None, 26)                650       
_________________________________________________________________
dec8_28 (Dense)              (None, 28)                756       
_________________________________________________________________
dec9_96 (Dense)              (None, 96)                2784      
=================================================================
Total params: 13,029
Trainable params: 13,029
Non-trainable params: 0
_________________________________________________________________
(8147, 96)
(2721, 96)
Train on 8147 samples, validate on 2721 samples
Epoch 1/1000
  32/8147 [..............................] - ETA: 12s - loss: 0.0104 - acc: 0.0000e+00
…
