…
2017-11-18 16:27:09.136239: W tensorflow/core/platform/cpu_feature_guard.cc:45] The TensorFlow library wasn't compiled to use SSE4.2 instructions, but these are available on your machine and could speed up CPU computations.
2017-11-18 16:27:09.136247: W tensorflow/core/platform/cpu_feature_guard.cc:45] The TensorFlow library wasn't compiled to use AVX instructions, but these are available on your machine and could speed up CPU computations.
self.__encoder_layers_config  [96, 28, 26, 24, 22, 20, 19, 17, 15, 13]
_________________________________________________________________
Layer (type)                 Output Shape              Param #   
=================================================================
input_1 (InputLayer)         (None, 96)                0         
_________________________________________________________________
enc0_28 (Dense)              (None, 28)                2716      
_________________________________________________________________
enc1_26 (Dense)              (None, 26)                754       
_________________________________________________________________
enc2_24 (Dense)              (None, 24)                648       
_________________________________________________________________
enc3_22 (Dense)              (None, 22)                550       
_________________________________________________________________
enc4_20 (Dense)              (None, 20)                460       
_________________________________________________________________
enc5_19 (Dense)              (None, 19)                399       
_________________________________________________________________
enc6_17 (Dense)              (None, 17)                340       
_________________________________________________________________
enc7_15 (Dense)              (None, 15)                270       
_________________________________________________________________
enc8_13 (Dense)              (None, 13)                208       
_________________________________________________________________
dec0_15 (Dense)              (None, 15)                210       
_________________________________________________________________
dec1_17 (Dense)              (None, 17)                272       
_________________________________________________________________
dec2_19 (Dense)              (None, 19)                342       
_________________________________________________________________
dec3_20 (Dense)              (None, 20)                400       
_________________________________________________________________
dec4_22 (Dense)              (None, 22)                462       
_________________________________________________________________
dec5_24 (Dense)              (None, 24)                552       
_________________________________________________________________
dec6_26 (Dense)              (None, 26)                650       
_________________________________________________________________
dec7_28 (Dense)              (None, 28)                756       
_________________________________________________________________
dec8_96 (Dense)              (None, 96)                2784      
=================================================================
Total params: 12,773
Trainable params: 12,773
Non-trainable params: 0
_________________________________________________________________
(8147, 96)
(2721, 96)
Train on 8147 samples, validate on 2721 samples
Epoch 1/200
  32/8147 [..............................] - ETA: 6s - loss: 0.0104 - acc: 0.0000e+00
…
loss improved from 0.00573 to 0.00573, saving model to /home/dhiegorp/deepnn/checkpoints/9layers/unigram/AE_UNIGRAMA_9L_FULLDS_UNDER_01.h5
8147/8147 [==============================] - 1s 81us/step - loss: 0.0058 - acc: 0.5938 - val_loss: 0.0057 - val_acc: 0.6031
Epoch 00101: early stopping
_________________________________________________________________
Layer (type)                 Output Shape              Param #   
=================================================================
input_1 (InputLayer)         (None, 96)                0         
_________________________________________________________________
enc0_28 (Dense)              (None, 28)                2716      
_________________________________________________________________
enc1_26 (Dense)              (None, 26)                754       
_________________________________________________________________
enc2_24 (Dense)              (None, 24)                648       
_________________________________________________________________
enc3_22 (Dense)              (None, 22)                550       
_________________________________________________________________
enc4_20 (Dense)              (None, 20)                460       
_________________________________________________________________
enc5_19 (Dense)              (None, 19)                399       
_________________________________________________________________
enc6_17 (Dense)              (None, 17)                340       
_________________________________________________________________
enc7_15 (Dense)              (None, 15)                270       
_________________________________________________________________
enc8_13 (Dense)              (None, 13)                208       
_________________________________________________________________
classifier (Dense)           (None, 9)                 126       
=================================================================
Total params: 6,471
Trainable params: 6,471
Non-trainable params: 0
_________________________________________________________________
Train on 8147 samples, validate on 2721 samples
Epoch 1/200
  32/8147 [..............................] - ETA: 5s - loss: 2.1974 - acc: 0.0000e+00
…
2017-11-18 16:30:22.626132: W tensorflow/core/platform/cpu_feature_guard.cc:45] The TensorFlow library wasn't compiled to use SSE4.2 instructions, but these are available on your machine and could speed up CPU computations.
2017-11-18 16:30:22.626140: W tensorflow/core/platform/cpu_feature_guard.cc:45] The TensorFlow library wasn't compiled to use AVX instructions, but these are available on your machine and could speed up CPU computations.
self.__encoder_layers_config  [96, 134, 122, 109, 97, 84]
_________________________________________________________________
Layer (type)                 Output Shape              Param #   
=================================================================
input_1 (InputLayer)         (None, 96)                0         
_________________________________________________________________
enc0_134 (Dense)             (None, 134)               12998     
_________________________________________________________________
enc1_122 (Dense)             (None, 122)               16470     
_________________________________________________________________
enc2_109 (Dense)             (None, 109)               13407     
_________________________________________________________________
enc3_97 (Dense)              (None, 97)                10670     
_________________________________________________________________
enc4_84 (Dense)              (None, 84)                8232      
_________________________________________________________________
dec0_97 (Dense)              (None, 97)                8245      
_________________________________________________________________
dec1_109 (Dense)             (None, 109)               10682     
_________________________________________________________________
dec2_122 (Dense)             (None, 122)               13420     
_________________________________________________________________
dec3_134 (Dense)             (None, 134)               16482     
_________________________________________________________________
dec4_96 (Dense)              (None, 96)                12960     
=================================================================
Total params: 123,566
Trainable params: 123,566
Non-trainable params: 0
_________________________________________________________________
(8147, 96)
(2721, 96)
Train on 8147 samples, validate on 2721 samples
Epoch 1/200
  32/8147 [..............................] - ETA: 6s - loss: 0.0103 - acc: 0.0000e+00
…
