…
2017-11-18 16:27:17.294513: W tensorflow/core/platform/cpu_feature_guard.cc:45] The TensorFlow library wasn't compiled to use SSE4.2 instructions, but these are available on your machine and could speed up CPU computations.
2017-11-18 16:27:17.294521: W tensorflow/core/platform/cpu_feature_guard.cc:45] The TensorFlow library wasn't compiled to use AVX instructions, but these are available on your machine and could speed up CPU computations.
self.__encoder_layers_config  [96, 134, 122, 109, 97, 84, 72, 9]
_________________________________________________________________
Layer (type)                 Output Shape              Param #   
=================================================================
input_1 (InputLayer)         (None, 96)                0         
_________________________________________________________________
enc0_134 (Dense)             (None, 134)               12998     
_________________________________________________________________
enc1_122 (Dense)             (None, 122)               16470     
_________________________________________________________________
enc2_109 (Dense)             (None, 109)               13407     
_________________________________________________________________
enc3_97 (Dense)              (None, 97)                10670     
_________________________________________________________________
enc4_84 (Dense)              (None, 84)                8232      
_________________________________________________________________
enc5_72 (Dense)              (None, 72)                6120      
_________________________________________________________________
enc6_9 (Dense)               (None, 9)                 657       
_________________________________________________________________
dec0_72 (Dense)              (None, 72)                720       
_________________________________________________________________
dec1_84 (Dense)              (None, 84)                6132      
_________________________________________________________________
dec2_97 (Dense)              (None, 97)                8245      
_________________________________________________________________
dec3_109 (Dense)             (None, 109)               10682     
_________________________________________________________________
dec4_122 (Dense)             (None, 122)               13420     
_________________________________________________________________
dec5_134 (Dense)             (None, 134)               16482     
_________________________________________________________________
dec6_96 (Dense)              (None, 96)                12960     
=================================================================
Total params: 137,195
Trainable params: 137,195
Non-trainable params: 0
_________________________________________________________________
(8147, 96)
(2721, 96)
Train on 8147 samples, validate on 2721 samples
Epoch 1/200
  32/8147 [..............................] - ETA: 7s - loss: 0.0104 - acc: 0.0000e+00
…
oss improved from 0.00548 to 0.00547, saving model to /home/dhiegorp/deepnn/checkpoints/6layers/unigram/AE_UNIGRAMA_6L_9FULLDS_OVER_04.h5
8147/8147 [==============================] - 1s 139us/step - loss: 0.0055 - acc: 0.5938 - val_loss: 0.0055 - val_acc: 0.6031
Epoch 00101: early stopping
_________________________________________________________________
Layer (type)                 Output Shape              Param #   
=================================================================
input_1 (InputLayer)         (None, 96)                0         
_________________________________________________________________
enc0_134 (Dense)             (None, 134)               12998     
_________________________________________________________________
enc1_122 (Dense)             (None, 122)               16470     
_________________________________________________________________
enc2_109 (Dense)             (None, 109)               13407     
_________________________________________________________________
enc3_97 (Dense)              (None, 97)                10670     
_________________________________________________________________
enc4_84 (Dense)              (None, 84)                8232      
_________________________________________________________________
enc5_72 (Dense)              (None, 72)                6120      
_________________________________________________________________
enc6_9 (Dense)               (None, 9)                 657       
_________________________________________________________________
classifier (Dense)           (None, 9)                 90        
=================================================================
Total params: 68,644
Trainable params: 68,644
Non-trainable params: 0
_________________________________________________________________
Train on 8147 samples, validate on 2721 samples
Epoch 1/200
  32/8147 [..............................] - ETA: 5s - loss: 2.1966 - acc: 0.0625
…
